eval/trifinger_claire/trifinger_mbirl/forward_models/runs/phase2_model_nt-100_ost-pos_train-all/epoch_3000_ckpt.pth (torch, 15835 bytes, 4 tensors)

model_list.0.weight f4 [100, 21]
000000 ad 26 ce 3d c7 bd 80 3d 41 58 32 be 8f b4 74 bd
       0.100659706 0.06286197 -0.17416479 -0.059742507
000010 7d bc ea bc 92 61 b0 3d 5f b9 d6 bc aa 32 93 3e
       -0.028654331 0.0861236 -0.026211439 0.2874959
000020 65 a5 f0 bc a5 a1 43 be e1 ac 8c bd c3 ab 35 3d
       -0.029375741 -0.19104631 -0.068689115 0.044353258
000030 df b4 fd bd f8 95 18 be 91 12 3f bd 22 4a cf 3d
       -0.12388014 -0.14900959 -0.046648566 0.101215616
000040 63 32 c1 3d a5 a4 3e 3e 9a 50 29 be 81 f4 0a 3e
       0.09433439 0.18617494 -0.16534653 0.13569833
000050 c9 6e 05 bd 00 b3 12 3e 28 8f e6 bd 6d 23 7b 3e
       -0.032576356 0.14326096 -0.11257774 0.24525233
000060 ab da 07 3e f5 8b 6b bd a9 ee 92 3e 2d f0 a2 be
       0.13267009 -0.05750652 0.28697708 -0.31823865
000070 80 72 a9 bd f7 de 24 3d d3 d8 20 be 64 36 33 3e
       -0.08273792 0.0402517 -0.15707712 0.17501217
000080 35 1f eb bd 70 a0 f8 bd 59 63 83 be 4f e2 a8 bd
       -0.11480562 -0.12139976 -0.25661734 -0.0824629
000090 96 e7 de bd 4d cc ce 3d 25 19 72 3e 73 c1 ff bd
       -0.10884015 0.10097561 0.23642404 -0.124880694
0000a0 14 4a 52 bd a8 28 3a bd 84 38 17 3d 8d a3 50 be
       -0.051340178 -0.04544893 0.036919132 -0.2037489
0000b0 0d 76 21 be 48 65 e6 bd 7f fc 0c 3e 39 04 03 3e
       -0.15767689 -0.112497866 0.13768195 0.1279458
0000c0 d5 33 c6 bd 30 01 01 bc c1 e9 0e 3e e7 24 5e 3e
       -0.09677855 -0.007873818 0.13956358 0.21693765
0000d0 e6 5e b1 3d 60 7f f1 3c d7 d2 15 3e 26 92 03 be
       0.086606786 0.029479682 0.1463121 -0.1284872
0000e0 e4 8e 26 3d f9 3e 2d be a8 df 1a be d2 dd e6 bd
       0.040663615 -0.16918553 -0.1512438 -0.112727776
0000f0 fe 36 ca 3d c6 ba b3 3d 3c 5d 04 be ff 06 a6 3d
       0.0987377 0.087758586 -0.12926191 0.08106803
000100 6c ff 98 3e b8 e2 e7 3d 83 f0 9e 3c 64 c7 a1 bd
       0.2988237 0.1132254 0.019401794 -0.07899359
000110 2f 57 5e 3e 4f da d9 3d a8 32 50 be ca ba 25 3d
       0.21712945 0.10637342 -0.20331824 0.04046134
000120 11 7d 03 3c 49 bd 4f 3d 2e 05 60 3e 71 e5 65 3e
       0.008025424 0.050717626 0.21876976 0.22450806
000130 ad 4a 35 3e 5b 55 14 bd eb 9f 1d 3e 06 e9 5e be
       0.17704268 -0.036214214 0.15393035 -0.21768579
000140 cc 8c ac be 7a f5 79 3e 62 67 cb 3d de fd 17 be
       -0.3370117 0.24410048 0.09931828 -0.14842936
000150 5c 4c 27 3d b0 92 16 bd 90 16 13 bd 84 93 cc bd
       0.040844306 -0.036760986 -0.03591019 -0.09989074
000160 b2 dc ab 3d 6f 5a 04 be 5a d5 a3 3d 92 01 e2 3d
       0.08391704 -0.12925123 0.07999678 0.11035456
000170 15 f7 1f 3e ce 1a a7 3d 52 29 5d be 64 f4 10 be
       0.15621598 0.081594095 -0.21597794 -0.14155728
000180 26 26 df 3d ec 13 3b 3d 53 50 2e be 79 ab 00 be
       0.10895948 0.045673296 -0.17022829 -0.12565412
000190 1b 37 52 3e 6d 91 16 3e 36 dd c2 bd 04 f6 60 bd
       0.20528834 0.14703913 -0.09514849 -0.05492212
0001a0 e9 dc 54 be 92 89 79 bc 3f 3d 74 be 9e 2c cc bd
       -0.20787396 -0.015230553 -0.23851489 -0.099694476
0001b0 c1 84 03 3d b1 fe b2 bc d6 5b 40 bd e4 fc 18 3e
       0.032109026 -0.021849962 -0.04696258 0.1494022
0001c0 57 09 62 be 4b 2e 6c 3e 57 0e 24 3e 29 c2 99 be
       -0.22073875 0.23064534 0.16021095 -0.30030945
0001d0 fa 94 26 bc 68 c2 fd 3d e4 a5 03 be e3 96 af 3e
       -0.010167355 0.12390596 -0.12856251 0.34294805
0001e0 37 26 2a 3e 56 5d 58 be 1b 85 15 3e 27 59 08 3d
       0.1661614 -0.21129355 0.14601557 0.033288147
0001f0 61 85 8f be 6f eb 18 be 3e 18 4a be 44 85 b4 bd
       -0.28031448 -0.14933561 -0.1973581 -0.08814481
000200 0b 94 9d bd 18 d4 0e be b5 86 f6 bd aa f5 45 3d
       -0.076942526 -0.13948095 -0.12037412 0.048329987
000210 3f b9 4a be d0 00 7a 3d 80 33 35 3e af 10 0e be
       -0.19797228 0.06103593 0.17695427 -0.13873552
000220 b4 95 70 bd 89 f6 d9 bd 2e 11 7c be 6a 0f bf 3d
       -0.058736518 -0.10642726 -0.24615929 0.09329112
000230 9f f3 46 3e 82 78 f7 3d 68 8b 84 3e 33 02 2f 3d
       0.19428872 0.12083532 0.2588761 0.042726707
000240 e8 55 29 be 07 d1 08 be 67 4f 32 3e 55 d1 c6 bd
       -0.16536677 -0.13360988 0.17413102 -0.09707896
000250 39 1e 7a bd e4 ef c2 bd 6e 05 6d bd fc 93 7d be
       -0.06106398 -0.09518412 -0.057866506 -0.24763483
000260 24 1c 8f 3c 3b 98 b6 3d 18 e6 1b bd a4 85 0d be
       0.017469473 0.089157544 -0.03806123 -0.13820511
000270 d4 33 37 3e d6 85 7c be 5c 42 80 3c c4 51 3e bd
       0.17890865 -0.2466043 0.015656643 -0.046464697
000280 aa 98 81 be 36 90 c6 be 4b 20 4d bd f0 c3 98 be
       -0.25311786 -0.387819 -0.050079625 -0.29836988
000290 0b c8 23 be fd b3 b5 3d 49 88 86 be 54 a0 53 3e
       -0.15994279 0.08872221 -0.26275852 0.20666629
0002a0 ff f0 5f be 98 9e 0a 3d b3 4c 32 3e fe ac 05 be
       -0.21869276 0.033842653 0.17412071 -0.13054273
0002b0 65 44 36 3e d9 c2 04 3e 67 a3 72 be 06 bb 43 3e
       0.17799528 0.12964953 -0.23695146 0.19114313
0002c0 b6 d2 f8 bb d1 76 0f be 71 55 3e 3e 75 71 c1 3b
       -0.007593478 -0.14010169 0.18587281 0.0059034177
0002d0 e0 63 3d be c9 26 7b 3e 8c d2 18 3e 09 eb 1f bd
       -0.1849513 0.24526514 0.14924067 -0.039042506
0002e0 9e 20 76 3e 59 7d 4a 3e 89 84 9d bc cc 40 04 3e
       0.2403588 0.19774379 -0.019228237 0.12915343
0002f0 04 39 04 be cd 8b a8 3d 59 50 66 3e 8f eb 21 3e
       -0.12912375 0.0822979 0.22491588 0.15812515
000300 51 d7 01 be 87 21 e4 bd b7 e6 bf bd 10 9f dc bd
       -0.12679793 -0.11139207 -0.09370177 -0.10772526
000310 bb e2 5d be 73 d1 c5 3d e1 ff 04 bc 8e 6f 8b bc
       -0.21668522 0.0965909 -0.008117647 -0.017020967
000320 9d 08 00 3e c6 7e 88 3d 36 2b 12 3e c7 c1 8b bc
       0.12503286 0.06664805 0.14274296 -0.017060174
000330 d7 53 25 be 3a e8 33 3d 28 2f 60 3d 8d 94 83 3e
       -0.16145264 0.04392264 0.05473247 0.25699273
000340 d8 13 0a be 01 ab b7 bc ad 9d 24 3e 5a 7c 8a 3c
       -0.13484132 -0.022420408 0.16075774 0.016904999
000350 0a c4 b3 3d 02 96 11 bd 17 c9 2f be f3 f4 dd 3d
       0.08777626 -0.03554345 -0.17166553 0.10837736
000360 84 4a 40 be 6d 8e 9e bd ba a3 92 3e 06 28 85 be
       -0.18778425 -0.07742009 0.28640538 -0.26007098
000370 8b 9e 58 3d 9b 76 8a 3e 9d c1 00 3e 72 80 0a 3e
       0.052885573 0.27043614 0.12573858 0.1352556
000380 59 7f 4d be 15 fb 69 bd fa da 3b be 51 8e cf bd
       -0.2006811 -0.057124216 -0.18345252 -0.101345666
000390 21 ea 60 be 81 7e 74 bd d6 7e 84 3d 9a 86 34 3e
       -0.21964313 -0.059690956 0.064695045 0.17629471
0003a0 fc d0 be 3d 4f 23 8d 3e c9 e5 63 3e 3c ce 25 be
       0.09317204 0.27566 0.22255625 -0.16191953
0003b0 0e 0e 0b 3e 1f 6d 0c be d3 ca 7f be c3 77 df 3d
       0.1357958 -0.13713501 -0.24979715 0.109115146
0003c0 9f 2a e9 3c 74 ac 97 3e 6c 19 96 bc de 9e 85 bd
       0.028462706 0.2962376 -0.018322669 -0.06524442
0003d0 41 62 ce 3e fa da 09 3e 4f f5 6b 3e f0 ed 0d be
       0.40309337 0.13462439 0.23042797 -0.13860297
0003e0 f8 da d4 bc 76 49 df bc 9a 51 94 be 72 c2 2d bd
       -0.025983319 -0.027256709 -0.28968507 -0.042421766
0003f0 b6 cc 8e 3e cd bf d4 bb b1 13 a3 bd 29 a3 e7 bb
       0.27890557 -0.006492591 -0.0796274 -0.0070690108

model_list.0.bias f4 [100]
000000 b4 07 55 be 8f f8 c0 3d b0 58 95 bc 4d df ac 3c
       -0.2080372 0.09422409 -0.018230766 0.021102572
000010 fb 46 18 3e da 59 54 3e 88 99 ec 3c 40 95 3a bc
       0.14870827 0.207374 0.028881803 -0.011388123
000020 4f 85 33 3e cc dc c5 3d c7 40 a2 3d bd 15 5c bd
       0.17531322 0.09661254 0.079225115 -0.05373167
000030 0f fe ad 3c 4e 75 84 3e 68 7f 24 3d a5 9b ae bd
       0.021239309 0.25870746 0.040160567 -0.085257806
000040 57 81 4e be d4 53 0d bd 79 10 13 3e 64 f9 ab 3d
       -0.20166527 -0.034503773 0.14361753 0.08397177
000050 02 54 24 3d e7 d3 28 3e 0c 51 55 be 5d dc 3f 3d
       0.04011918 0.16487084 -0.20831698 0.046841014
000060 8c 2b 35 3b 66 c1 3d 3e b5 4b 53 3e f2 fc 9d 3d
       0.0027644364 0.18530807 0.20634349 0.07714261
000070 3c 28 0a 3e 9a 4a fb bd cd eb a2 bd ea 15 84 3d
       0.1349191 -0.122700885 -0.07955132 0.06449492
000080 38 3c 13 be 07 2d ca 3d 29 43 31 be dd 50 39 3e
       -0.1437844 0.098718695 -0.17310776 0.18097253
000090 75 7a 35 3e f3 74 6a be a9 a8 76 3e 3f 7d 11 3e
       0.17722495 -0.22896175 0.24087776 0.14207934
0000a0 8f 6c 03 be 18 c8 63 3e ea 05 1d be 79 1f d7 bd
       -0.1283438 0.22244298 -0.15334287 -0.1050405
0000b0 1d 65 c3 bd 3b 98 54 3c 0d 31 44 3d 1f 6c 33 bd
       -0.0954077 0.012975748 0.04789834 -0.043804284
0000c0 dc 72 f6 bd 19 03 6e 3d 15 96 42 3e d3 c3 7d 3e
       -0.120336264 0.058108423 0.19002564 0.24781732
0000d0 5e a6 c4 3d 7e 55 53 3d 62 a6 2b 3e cf 19 c6 bd
       0.096020445 0.051595204 0.16762689 -0.09672891
0000e0 bc 9a 89 3d dd 69 0b be 0b 76 20 bd da 00 db bd
       0.06718966 -0.13614602 -0.039175075 -0.10693522
0000f0 08 cd 57 3e 08 b8 c4 3d 97 e1 2b 3c 5a cb 08 3e
       0.21074307 0.09605414 0.0104907965 0.13358822
000100 b7 39 45 be 1a a7 6c 3c 2c 73 44 3e dc 91 4b 3d
       -0.19260298 0.014444137 0.1918456 0.04969965
000110 9b 6b 04 3d d9 1b 9a 3e 9c ba 39 be 7b 15 eb bd
       0.032329183 0.3009937 -0.18137592 -0.114787064
000120 f3 6b 78 3e 24 aa 03 3d 51 d1 48 bd 6e 49 5d 3e
       0.2425993 0.03214468 -0.049027745 0.21610042
000130 25 17 a1 3e f6 2c 8b 3c 47 47 c1 3b 15 da bf bb
       0.3146297 0.016989212 0.0058983895 -0.005854855
000140 2c 42 3b bd 02 18 6e bd 6b 67 45 3e 0d 13 c6 bd
       -0.045717403 -0.058128364 0.19277732 -0.096716024
000150 64 ae fe bd 5b 02 21 3e b5 cd b8 3c 66 bc d0 3d
       -0.12435606 0.15723555 0.022559026 0.10192184
000160 22 91 51 3d 2c 85 c2 bc a4 b8 34 bd e0 00 f5 3d
       0.0511638 -0.023745142 -0.0441214 0.119630575
000170 12 f8 1c bd 3e a4 9e bd 4d 57 67 bb 55 42 aa 3d
       -0.038322516 -0.077461705 -0.0035299838 0.08313433
000180 b9 88 a9 3c 9e 15 8d bd 38 22 1d 3d 6a bd 5a bd
       0.020695077 -0.06888889 0.03836271 -0.053403296

model_list.2.weight f4 [12, 100]
000000 28 2b 8a 3c af 8b 04 bc 61 4b a3 3d cb 62 0c 3e
       0.016866282 -0.008089944 0.07973362 0.13709562
000010 ad 5f af bd d5 1c 47 3d 46 11 1c be cb 07 b1 bd
       -0.085631706 0.04861148 -0.15240964 -0.086440645
000020 9b 32 22 be 32 c1 15 bd 79 81 c3 3c eb dd d4 3c
       -0.15839617 -0.0365612 0.023865448 0.025984725
000030 81 49 36 3e da 81 97 bd 2d 32 76 3b cf 01 10 3e
       0.17801477 -0.07397814 0.0037566528 0.1406319
000040 91 bc 02 3e b2 21 8e bc cf 55 c1 bb 04 76 c6 bc
       0.12767245 -0.017350052 -0.0059001218 -0.024226196
000050 e8 cf 16 3d fc d6 f7 bd 31 71 4c 3e 26 90 41 3d
       0.03681937 -0.12101552 0.19965054 0.04725661
000060 0b 8b d9 3d 0e 44 51 be 0c 7c ae bb 79 5e cd bd
       0.106222235 -0.20436117 -0.005324846 -0.10027785
000070 3f 1d aa 3d d1 34 26 3d a2 8d 90 3d 6c 99 13 be
       0.083063595 0.040577713 0.07058264 -0.14413995
000080 73 bf 3e 3d e8 b7 fc 3c 04 52 c5 3c 71 1e c9 3d
       0.0465693 0.030849412 0.02408696 0.09820259
000090 0a e8 a5 3d 29 67 e0 3c f5 ab ac 3d 2c ec 12 3e
       0.081008986 0.02739294 0.08431236 0.14347905
0000a0 66 97 30 3c 0d 29 46 bd 94 0e 16 be 98 fd 0a 3c
       0.010778284 -0.048378993 -0.14653999 0.008483313
0000b0 15 96 10 bc 83 f6 ea bc de 7a c4 3c 35 6c 25 3d
       -0.008824845 -0.028682 0.023984369 0.040386397
0000c0 10 8b d8 bd b4 1c ec 3d b0 51 98 ba d1 5f 09 3e
       -0.10573399 0.11528912 -0.0011621024 0.13415457
0000d0 20 ae e8 bc 8b 16 1e 3e d2 7d 08 be e4 a2 39 be
       -0.028403342 0.15438287 -0.13329247 -0.18128544
0000e0 9a b1 18 3d 51 c2 c7 bd 08 63 83 bd a0 96 ef 3c
       0.03727875 -0.0975386 -0.06415373 0.029246628
0000f0 94 ea e4 bd ee 52 39 bd 15 88 36 3e 39 ed 0c be
       -0.11177555 -0.045245104 0.17825349 -0.13762368
000100 fb 4f 8a 3d d8 c9 6b 3c a4 66 9c 3d c7 d5 9d 3d
       0.06753536 0.014391385 0.07636765 0.077067904
000110 ab 19 37 bd 03 1e 1b be 3e a9 00 3e cc 46 29 3d
       -0.044702213 -0.15148167 0.12564561 0.041327283
000120 33 69 fb bd 7e 16 9c 3d f3 b5 cc bd b9 e6 fb 3d
       -0.122759245 0.076214775 -0.099956416 0.12299866
000130 a8 75 06 be 85 a9 e9 bb f9 be 14 3e 51 11 aa 3d
       -0.1313082 -0.007130804 0.14525975 0.08304084
000140 06 58 db bc 4e c9 22 be a9 0c ab 3c 45 ad 2f bd
       -0.026775371 -0.15897104 0.02088006 -0.042889852
000150 ac fb 43 3d 4d 52 af bd 50 b8 59 be 8d 47 0b 3e
       0.047847435 -0.085606195 -0.21261716 0.13601513
000160 ea 93 b0 3c 74 12 74 3d f0 78 a0 3d d5 9f 06 3b
       0.021554906 0.05958791 0.07835567 0.0020542045
000170 b4 13 f9 3c 6c bc 3c 3d d6 60 c0 3d 34 ba f2 3d
       0.030404903 0.04607813 0.0939347 0.11851922
000180 f8 dd 00 bc 35 bc e6 3b ec f3 b4 bd 25 b3 3c be
       -0.0078654215 0.007041479 -0.08835587 -0.18427713
000190 b8 a5 21 3d 57 53 17 be 20 4e 23 bd aa 9f 42 3e
       0.039464682 -0.14777885 -0.039869428 0.1900622
0001a0 63 0c c2 bd b7 2a 20 be 29 47 cc 3c 37 cd ee bd
       -0.09475019 -0.15641294 0.024936276 -0.116602354
0001b0 d7 a5 af 3d ad 33 e6 3d 46 3f dc 3b 0d 06 03 3e
       0.08576553 0.11240325 0.00672141 0.12795277
0001c0 61 8a d3 bd e5 46 a7 bc af 11 86 bd c9 b4 f7 bd
       -0.10329128 -0.020419547 -0.06546342 -0.12095029
0001d0 af 4f 10 3e 07 ae e7 bd d2 75 5a 3d 39 9f bd 3d
       0.14092897 -0.1131249 0.05333502 0.09258885
0001e0 0b 4f 4e bd 1b f1 cb 3b 42 16 90 bc 18 ae 15 bd
       -0.05036835 0.0062238104 -0.017588738 -0.036542982
0001f0 de 85 42 be 88 b7 b0 3d 14 d9 bf bc 6b b6 f3 3d
       -0.18996379 0.08628756 -0.02341894 0.11900028
000200 43 95 8a 3c ee d7 ac 3d 7b 23 90 3d 8d ad c1 bc
       0.016916877 0.08439623 0.07038017 -0.023642326
000210 19 84 d3 3a 9d 7b 94 bd e7 76 bd bd 6f d9 b1 bc
       0.0016137391 -0.0725014 -0.092511944 -0.021710126
000220 8f b2 46 3c f1 ee 33 3e 6a 2b 0b 3d 5e 12 06 3d
       0.012127533 0.17571618 0.03397695 0.03273236
000230 61 78 09 3e 69 5f b8 bc 81 b2 c9 3d e5 e7 2c 3e
       0.13424827 -0.022506433 0.098485 0.16885336
000240 2d a2 b5 bb 9a 4c 54 bc 25 f5 4e 3c 2a 4d 25 3d
       -0.0055430145 -0.012957716 0.012631689 0.040356793
000250 56 49 21 3c c3 6a 79 3d 09 f3 1d bc a3 48 ca 3d
       0.009844145 0.06089283 -0.009640464 0.098771356
000260 3a c9 16 3e cf 49 2f be 37 81 27 bd 13 8f 34 be
       0.147252 -0.17118 -0.040894713 -0.17632703
000270 60 61 1f 3d be e1 3c 3d 5b 41 38 3e 37 71 57 bc
       0.038911223 0.046113722 0.17993681 -0.013149551
000280 b9 32 9e 3b 28 27 9a 3b 35 14 21 3e d3 e6 30 be
       0.004827824 0.004704375 0.15730365 -0.17275552
000290 f8 d2 04 be 56 b9 07 3e d8 19 9c 3a a7 64 ce 3d
       -0.12971103 0.13254294 0.0011909558 0.10077792
0002a0 ee 0d 34 bd 25 36 78 3b 73 8a d4 bd 2a 0d 8b bc
       -0.043958597 0.003787407 -0.103779696 -0.01697405
0002b0 58 89 72 bc 30 ff e3 3d 9f 9c 9c bb 55 20 58 3e
       -0.014803253 0.111326575 -0.004779413 0.21106084
0002c0 ca be ad 3c 79 2e 4d be 9a 62 ac 3d 8a 2c a1 bc
       0.02120914 -0.20037259 0.08417244 -0.019674558
0002d0 54 48 f4 3d ee c3 1a 3e 30 2c a0 3c 04 69 3c bd
       0.11927858 0.15113804 0.01955232 -0.04599859
0002e0 d9 62 cb 3c 98 3b 41 bc 12 b4 0c bc c5 6f 1a be
       0.024827408 -0.011793993 -0.008587854 -0.15081699
0002f0 20 4d 10 3c b8 88 b1 3d 61 9b d4 3d ea 06 36 3d
       0.0088074505 0.08668655 0.10381199 0.044440188
000300 fe cf 54 bd 42 31 e5 3d 0a b1 3e be fc f0 13 bd
       -0.05195617 0.11191036 -0.18622223 -0.036118492
000310 46 fd 55 3e ca 79 75 3e 37 b8 a5 bb d3 85 38 be
       0.20897397 0.2397224 -0.0050573605 -0.180198
000320 f7 cd 32 3d c3 5e c5 3c b7 57 76 bd 3a 04 93 3d
       0.043653455 0.024093037 -0.060142245 0.071785405
000330 78 a3 aa bc 5a 01 d8 3c 78 3f c2 bc 72 f0 90 bd
       -0.020829901 0.026367832 -0.023711905 -0.07077111
000340 92 f8 b7 bc 37 32 7d 3c 16 23 66 bd af 91 11 3e
       -0.022457395 0.015453867 -0.056185804 0.1421573
000350 a4 15 0f bd 1e 07 8b bd 19 ad a7 3d fb 8f 96 bd
       -0.034932747 -0.06788467 0.08187313 -0.07351681
000360 b8 e4 37 bd ed c6 3a 3c a1 7a 37 bd 34 4c e4 3c
       -0.044895858 0.011399967 -0.044794682 0.027868368
000370 bd eb 7c bc 6f b9 97 bc 99 b5 51 bd cc 1a 93 3d
       -0.015437064 -0.018521039 -0.051198576 0.071828455
000380 5d 92 e1 3d a6 92 ad 3b de 8b 4f bd b0 6e 82 bd
       0.11014245 0.005297023 -0.050670497 -0.06368768
000390 88 09 58 3d e0 e0 10 bd ec 58 a9 3d 36 dc 64 3d
       0.052743465 -0.035370708 0.082689136 0.055874072
0003a0 5e 68 25 3d d7 6d 81 3c 5a f9 25 3e 88 25 10 bd
       0.040382735 0.015799446 0.16208401 -0.035192043
0003b0 1e a4 74 3d 7f a1 81 3c c4 2c 63 3d 85 3b 2e bd
       0.059726827 0.015824078 0.055462614 -0.04253723
0003c0 32 60 7a 3d b7 fa 28 3d c7 cf dc bc ec 4f a3 bd
       0.061126895 0.041254725 -0.026954545 -0.07974228
0003d0 fd 2d e0 bc 85 e8 ba 3c a3 af 04 bc 69 6d 14 bd
       -0.027365679 0.022815952 -0.008098516 -0.036237154
0003e0 7b e6 97 bc ce 1f b9 bc eb c6 93 3d 0c bc 72 3c
       -0.018542519 -0.022598173 0.07215675 0.014815342
0003f0 f0 76 c7 bd 04 c3 9c bd 4e 3d 96 3d 5b df 11 3c
       -0.097394824 -0.07654384 0.07335912 0.00890335

model_list.2.bias f4 [12]
000000 8f e0 18 3d 24 dc e5 bd 9e 2c dd 3b 38 bb ee bd
       0.03732353 -0.11223629 0.0067497035 -0.11656803
000010 67 b2 8c 3d 51 c1 1f 3e 77 99 f7 bc 74 b8 57 3d
       0.06869965 0.15601088 -0.030224545 0.052666143
000020 07 b3 f1 3d 62 4a 4a 3d 9f 39 44 3d 09 1f 2c 3d
       0.11801725 0.049387343 0.047906514 0.042021785
