eval/trifinger/trifinger_claire/trifinger_mbirl/forward_models/runs/phase2_model_nt-100_ost-pos_train-m2/epoch_1500_ckpt.pth (torch, 15835 bytes, 4 tensors)

model_list.0.weight f4 [100, 21]
0	0x3d0ba74e	0.0340951
1	0x3dac3ff0	0.084106326
2	0xbe505416	-0.20344576
3	0xbe7c1aa1	-0.24619533
4	0xb858e50c	-5.171173e-05
5	0x3d81bbf7	0.063346796
6	0xbda7f43c	-0.08200881
7	0x3ea8f519	0.32999495
8	0xbd2dcc6b	-0.042431276
9	0xbd9001a1	-0.07031561
10	0xbdeb5203	-0.11490252
11	0x39271f6f	0.00015938071
12	0xbe8c59c0	-0.27412224
13	0xbdb00932	-0.08595504
14	0xbdfe2571	-0.12409485
15	0xbd47a917	-0.04874524
16	0x3e12478f	0.1428511
17	0x3e833303	0.25624856
18	0xbe5f9566	-0.21834335
19	0xbd37e841	-0.04489923
20	0x3dbc202f	0.09185826
21	0x3dc5c53f	0.09656762
22	0xbdfe6845	-0.124222316
23	0x3e8299d6	0.25507993
24	0x3dc2a2d9	0.09503717
25	0xbcdc7476	-0.026911002
26	0x3e99dc11	0.3005071
27	0xbe94c08d	-0.29053155
28	0xbdc76bf9	-0.09737391
29	0x3d3f2f5c	0.046676025
30	0xbde46885	-0.11152748
31	0x3e293a03	0.16526036
32	0xbd380478	-0.044926137
33	0xbe470846	-0.1943675
34	0xbe6e978d	-0.233
35	0xbe0075fc	-0.12545007
36	0xbe59c8c9	-0.21268
37	0x3dca8edd	0.0989053
38	0x3e905a91	0.28194097
39	0xbc11820e	-0.008881105
40	0xbd8ecfc3	-0.06973221
41	0x3d35ae38	0.0443556
42	0x3d173884	0.036919132
43	0xbe50a38d	-0.2037489
44	0xbe21760d	-0.15767689
45	0xbde66548	-0.112497866
46	0x3e0cfc7f	0.13768195
47	0x3e030439	0.1279458
48	0xbdc633d5	-0.09677855
49	0xbc010130	-0.007873818
50	0x3e0ee9c1	0.13956358
51	0x3e5e24e7	0.21693765
52	0x3db15ee6	0.086606786
53	0x3cf17f60	0.029479682
54	0x3e15d2d7	0.1463121
55	0xbe039226	-0.1284872
56	0x3d268ee4	0.040663615
57	0xbe2d3ef9	-0.16918553
58	0xbe1adfa8	-0.1512438
59	0xbde6ddd2	-0.112727776
60	0x3dca36fe	0.0987377
61	0x3db3bac6	0.087758586
62	0xbe045d3c	-0.12926191
63	0x3da7a81e	0.08186363
64	0x3e873d11	0.26413777
65	0x3db55cfb	0.08855625
66	0x3c753cb8	0.01496809
67	0xbda1e23a	-0.079044774
68	0x3e6bbf6f	0.23022245
69	0x3d9f23e2	0.07770516
70	0xbe4f45c2	-0.20241454
71	0x3cd8e28c	0.026475213
72	0x3d55ec20	0.05222714
73	0x3dc45651	0.09586776
74	0x3e7e7688	0.24849904
75	0x3e919438	0.28433394
76	0x3d153d03	0.03643514
77	0x3c3e351f	0.011609345
78	0x3dd95e2c	0.10613665
79	0xbe2f842d	-0.17140265
80	0xbe51322c	-0.20429295
81	0x3e9fca84	0.31209195
82	0x3df5cd34	0.1200203
83	0xbe2991bf	-0.16559504
84	0x3d274c5c	0.040844306
85	0xbd1692b0	-0.036760986
86	0xbd131690	-0.03591019
87	0xbdcc9384	-0.09989074
88	0x3dabdcb2	0.08391704
89	0xbe045a6f	-0.12925123
90	0x3da3d55a	0.07999678
91	0x3de20192	0.11035456
92	0x3e1ff715	0.15621598
93	0x3da71ace	0.081594095
94	0xbe5d2952	-0.21597794
95	0xbe10f464	-0.14155728
96	0x3ddf2626	0.10895948
97	0x3d3b13ec	0.045673296
98	0xbe2e5053	-0.17022829
99	0xbe00ab79	-0.12565412
100	0x3e52371b	0.20528834
101	0x3e16916d	0.14703913
102	0xbdc2dd36	-0.09514849
103	0xbd60f604	-0.05492212
104	0xbe54dce9	-0.20787396
105	0x3de24da4	0.11049965
106	0xbe86b906	-0.26313037
107	0xbe087738	-0.13326728
108	0xbc6489a1	-0.013948829
109	0xbb4192c2	-0.0029536937
110	0xbd7d7087	-0.061874893
111	0x3dc5d5cc	0.09659919
112	0xbe53de01	-0.20690157
113	0x3e6b3531	0.2296951
114	0x3dd8a8d2	0.10579075
115	0xbe8415b5	-0.2579781
116	0xbcbfdcdb	-0.023420742
117	0x3bfafdf1	0.0076596667
118	0xbe20285d	-0.15640397
119	0x3d489052	0.04896576
120	0x3dc9a2c5	0.09845499
121	0xbe1a9e39	-0.1509942
122	0xbe374a10	-0.17899346
123	0x3dd3e76b	0.10346874
124	0xbec57233	-0.3856369
125	0xbe38a88f	-0.1803305
126	0xbe6ac419	-0.22926368
127	0xbda1bf2a	-0.0789779
128	0xbd53170b	-0.051535647
129	0xbe214c4d	-0.15751763
130	0xbdc3e02c	-0.09564242
131	0x3d9aca0a	0.07558067
132	0xbe4fd402	-0.20295718
133	0x3cf2e98e	0.029652383
134	0x3e4cb648	0.1999141
135	0xbda06964	-0.07832602
136	0xbc08e6a6	-0.008355772
137	0xbd0275e0	-0.031850696
138	0xbd6c5b24	-0.057704106
139	0x3e2118fe	0.1573219
140	0x3e8565e3	0.26054296
141	0x3d179506	0.037007354
142	0x3e5794c8	0.2105285
143	0x3dbef425	0.093239106
144	0xbe960299	-0.29298857
145	0xbdb895cb	-0.09012946
146	0x3e978e2b	0.29600653
147	0xbe01e2a4	-0.12684113
148	0xbe120691	-0.14260317
149	0xbdd4ccbd	-0.10390613
150	0xbda664e2	-0.081247106
151	0xbe856131	-0.26050714
152	0x3cd0e9f4	0.025502183
153	0x3d881ff9	0.06646723
154	0x3b89dbfd	0.004207133
155	0xbe08d879	-0.13363828
156	0x3e21ae0b	0.15789048
157	0xbe84e70d	-0.25957528
158	0x3c0ea840	0.008707106
159	0xbd101f35	-0.03518601
160	0xbdb31f8e	-0.08746253
161	0xbdb0fb87	-0.08641725
162	0xbe19117b	-0.14948075
163	0xbe736afe	-0.23771283
164	0xbcbbe73f	-0.022937415
165	0x3d19ba6a	0.037531294
166	0xbe1407dc	-0.14456123
167	0x3e184282	0.1486912
168	0xbe9f249c	-0.31082618
169	0xbcbd0f32	-0.023078535
170	0x3e321f52	0.1739476
171	0xbe0f601b	-0.14001505
172	0x3e367eb8	0.17821777
173	0x3db097fa	0.08622737
174	0xbe47b7ea	-0.19503751
175	0x3e52318e	0.20526716
176	0xbd036fda	-0.03208909
177	0xbdc1c2e4	-0.094610006
178	0x3e5e4d1b	0.21709101
179	0xbdba971b	-0.09110852
180	0xbd3dae4a	-0.046308793
181	0x3dbda0e4	0.09259203
182	0x3e736c77	0.23771845
183	0xbbab327a	-0.005224523
184	0x3e635213	0.22199278
185	0x3e07a9f4	0.13248426
186	0xbe071430	-0.13191295
187	0x3d82b65e	0.0638244
188	0xbddc6083	-0.10760596
189	0x3c565eb7	0.013084105
190	0x3e7cf2f1	0.2470205
191	0x3e3fc3d5	0.18727048
192	0xbdde8d0c	-0.10866746
193	0xbdb54d8e	-0.08852683
194	0xbdbbf75e	-0.09178041
195	0xbdc4c365	-0.09607581
196	0xbe42e124	-0.19031197
197	0x3de4ee89	0.111783095
198	0xbc46e188	-0.012138732
199	0x3c0319b0	0.00800173
200	0x3e05ba08	0.13059247
201	0x3e0d04a4	0.13771302
202	0xbe205159	-0.15656032
203	0x3db799fb	0.08964916
204	0xbe165187	-0.14679538
205	0x3da60581	0.081065185
206	0xbd3e1bf0	-0.046413362
207	0x3e42207d	0.18957706
208	0x3bc71e7e	0.006076633
209	0xbbba14d4	-0.0056787524
210	0x3d1a23c1	0.037631754
211	0x3ced5b9a	0.028974343
212	0x3da6269c	0.08112833
213	0xbe1991ff	-0.149971
214	0xbe1c8058	-0.15283334
215	0x3dbb1956	0.09135692
216	0xbe574a4d	-0.21024437
217	0xbdaea646	-0.08527808
218	0x3e739b04	0.23789603
219	0xbe516fc6	-0.20452794
220	0x3d250188	0.040284663
221	0x3e86e63e	0.26347536
222	0xbd62667f	-0.05527353
223	0x3ac13574	0.0014740662
224	0xbe461285	-0.19343002
225	0xbd829aac	-0.063771576
226	0xbe3e4c8e	-0.18583891
227	0xbdc48e87	-0.095974974
228	0xbe624d2d	-0.22099753
229	0xbd2df033	-0.0424654
230	0x3d9e0e20	0.07717538
231	0x3e39ac3f	0.18132113
232	0x3de6578f	0.11247169
233	0x3e85fc25	0.26168934
234	0x3e441d9f	0.19151925
235	0xbe103855	-0.14083989
236	0x3e11cf4e	0.14239237
237	0xbe0a2c18	-0.13493383
238	0xbe6e4ef2	-0.23272303
239	0x3ddfbbf4	0.10924521
240	0x3d669c4c	0.0563014
241	0x3e8dc927	0.2769253
242	0x3c7e02e5	0.01550362
243	0xb9c53d1f	-0.00037620307
244	0x3e7dd0f7	0.24786745
245	0xbd065b18	-0.032801718
246	0x3e0b5271	0.13605668
247	0xbdec7a4a	-0.11546762
248	0xbdd0ffbf	-0.1020503
249	0xbcf1618b	-0.029465457
250	0xbd84ba17	-0.06480806
251	0x3ddc5414	0.10758224
252	0x3e7c9e65	0.24669798
253	0xbd6d5929	-0.057946358
254	0xbd2da433	-0.04239292
255	0xbc894edd	-0.016761238

model_list.0.bias f4 [100]
0	0xbe73d175	-0.2381037
1	0x3df824c2	0.12116386
2	0xbc9558b0	-0.018230766
3	0x3d72edb0	0.059308708
4	0x3e1846fb	0.14870827
5	0x3e56a9ed	0.20963259
6	0x3d903ed4	0.070432335
7	0x3a4d0bf4	0.00078219105
8	0x3e1d3932	0.1535385
9	0x3e3b8037	0.18310629
10	0x3dd06b25	0.10176686
11	0xbc12960b	-0.008946906
12	0x3dd06de4	0.1017721
13	0x3e87506b	0.26428542
14	0x3d8873f3	0.066627406
15	0xbcc743a3	-0.024324244
16	0xbe175c06	-0.14781198
17	0xbcfb76de	-0.030696329
18	0x3e1d6ef4	0.15374357
19	0x3d36be6e	0.0446152
20	0x3c9b97c6	0.01899327
21	0x3e0d2252	0.13782623
22	0xbe508148	-0.20361817
23	0x3d47131c	0.04860221
24	0x3c858d1c	0.016302638
25	0x3e2abdfa	0.16674033
26	0x3e5d2c78	0.21598995
27	0x3e14d017	0.14532505
28	0x3e255a52	0.16147736
29	0xbe0e84ca	-0.13917843
30	0x3c7f4b07	0.015581853
31	0x3e10c5a5	0.14137895
32	0xbdc3b025	-0.09555081
33	0x3dd88de7	0.10573941
34	0xbdcf77ca	-0.1013027
35	0x3dcd5a38	0.100269735
36	0x3e832410	0.2561345
37	0xbe4f6024	-0.20251518
38	0x3e64154e	0.22273752
39	0x3de44a43	0.11146977
40	0xbdf6c630	-0.1204952
41	0x3e586b39	0.21134652
42	0xbe2025a7	-0.15639363
43	0xbdaf188c	-0.08549604
44	0xbd8e141f	-0.069374315
45	0xba703710	-0.00091634784
46	0x3dd92927	0.10603552
47	0xbc19dda3	-0.009391221
48	0xbdd6da4a	-0.10490854
49	0x3d65860d	0.056036044
50	0x3e6eb5b5	0.23311503
51	0x3e82af4f	0.25524375
52	0x3df3b8c3	0.11900475
53	0x3db1cfea	0.086822346
54	0x3e3de0a7	0.1854273
55	0xbdd5b04d	-0.10434017
56	0x3e1b8035	0.15185626
57	0xbde44445	-0.11145834
58	0xbcd114d8	-0.025522634
59	0xbd779cdd	-0.06045233
60	0x3e74499c	0.23856205
61	0x3d8dfc0f	0.06932842
62	0xbbc19c3f	-0.0059085186
63	0x3db9d0c2	0.090730205
64	0xbe2b6c38	-0.16740501
65	0x3d3fa539	0.046788428
66	0x3e1914b9	0.14949311
67	0x3d9ed14b	0.07754763
68	0x3c89057a	0.016726244
69	0x3e7f8517	0.24953113
70	0xbdf66cb1	-0.1203245
71	0x3c2e71ac	0.010647219
72	0x3e8ab538	0.27091384
73	0x3d989239	0.07449765
74	0x3b68bdef	0.00355136
75	0x3e475445	0.1946574
76	0x3e87f2cd	0.2655243
77	0xbc2536f5	-0.010083904
78	0xbcff0655	-0.031130949
79	0xbdab3c79	-0.083611436
80	0x3dacce58	0.084377944
81	0xb9d85f36	-0.00041269668
82	0x3e6a3979	0.22873487
83	0xbe15ea3c	-0.14640135
84	0xbdb5acd5	-0.08870856
85	0x3e212db9	0.15740098
86	0x3dcd0bf0	0.100120425
87	0x3e038487	0.12843524
88	0x3d34ff1b	0.0441886
89	0x3ca9114c	0.02063813
90	0xbd876008	-0.066101134
91	0x3e084254	0.13306552
92	0xbcb921f7	-0.022599204
93	0xbdb52204	-0.088443786
94	0x3be68e12	0.007035979
95	0x3db995b0	0.09061754
96	0x3caab699	0.020839022
97	0xbd56dcc1	-0.05245662
98	0xbd08011b	-0.03320418
99	0xbdbeb75e	-0.09312318

model_list.2.weight f4 [12, 100]
0	0x3bad5746	0.005289945
1	0xbd5bd619	-0.053670976
2	0x3da34b61	0.07973362
3	0x3dfa739a	0.122290805
4	0xbdaf5fad	-0.085631706
5	0x3d86d4d9	0.06583566
6	0xbe26c40c	-0.16285723
7	0xbd966a2e	-0.07344471
8	0xbe15b6cf	-0.14620517
9	0xbdb798be	-0.0896468
10	0xbc94b693	-0.018153464
11	0x3cfc8fec	0.030830346
12	0x3e11242d	0.14173956
13	0xbce4477a	-0.027866114
14	0x3d350d68	0.04420224
15	0x3e121848	0.14267075
16	0x3dddbbd1	0.10826839
17	0xbb3f176f	-0.0029158255
18	0xbcbf0fcd	-0.023322964
19	0xbd4e1590	-0.050313532
20	0x3dcbd1d1	0.09952129
21	0xbe26ffa2	-0.16308454
22	0x3dfbc43b	0.12293287
23	0x3d63de97	0.0556322
24	0x3e07e87e	0.13272282
25	0xbe1befe6	-0.15228233
26	0x3cf909ac	0.03040012
27	0xbe1b4958	-0.15164697
28	0x3deb51ad	0.11490188
29	0x3c90f3f4	0.01769445
30	0xbc7a4e1e	-0.015277414
31	0xbdaa237d	-0.0830755
32	0x3d4f5d04	0.050625816
33	0x3d08c23f	0.033388373
34	0xbaf221be	-0.0018473191
35	0x3e2174b3	0.15767173
36	0x3da2c48c	0.079476446
37	0xbd03b10f	-0.032151278
38	0x3ddccb56	0.10780971
39	0x3e1db7c8	0.15402138
40	0x3c8468c0	0.01616323
41	0xbc64de07	-0.013968951
42	0xbdc40810	-0.0957185
43	0xbbef0b76	-0.0072950674
44	0x3ce8b2f1	0.028405638
45	0xbd112981	-0.03543997
46	0x3751d9dd	1.2508096e-05
47	0x3d47a08b	0.04873709
48	0xbdc19ae8	-0.09453374
49	0x3dd63eec	0.1046122
50	0xbd4d4cf4	-0.050122216
51	0x3dfda6ca	0.12385328
52	0x3d5f609d	0.054535497
53	0x3d7b547f	0.06135988
54	0xbdf28bbd	-0.11843059
55	0xbe0f8329	-0.14014877
56	0x3d9bfd5a	0.07616682
57	0xbde81e63	-0.11333921
58	0xbd95a831	-0.073074706
59	0x3c083e82	0.008315684
60	0xbe13aaac	-0.14420575
61	0xbdbb32a2	-0.09140517
62	0x3e4c0eb1	0.1992748
63	0xbdca2c5f	-0.09871744
64	0x3ca57944	0.020199426
65	0x3d33634c	0.04379587
66	0x3d924507	0.07142072
67	0x3d8a2c08	0.067466795
68	0xbde28dcf	-0.11062204
69	0xbe3025aa	-0.17201868
70	0x3de47746	0.11155562
71	0x3dbddffc	0.09271237
72	0xbd74d338	-0.059771746
73	0x3dd123ac	0.10211882
74	0xbd25a481	-0.040440086
75	0x3df89bb0	0.1213907
76	0xbdfa7572	-0.12229432
77	0xbcf2e178	-0.029648528
78	0x3df4e6a2	0.11958052
79	0x3db5947f	0.08866214
80	0xbd3256b7	-0.04353973
81	0xbe27ce60	-0.1638732
82	0xbd495b6a	-0.049159445
83	0xbd8c3a0d	-0.0684701
84	0x3d956b05	0.07295803
85	0xbdabc160	-0.08386493
86	0xbe49d6e7	-0.19710885
87	0x3e2df760	0.16988897
88	0x3d68e0ae	0.056854896
89	0x3c6c8067	0.01443491
90	0x3d910e41	0.07082797
91	0x39ffd42e	0.00048795476
92	0x3cf50646	0.029910218
93	0x3d5b8e0d	0.053602267
94	0x3dd6b807	0.10484319
95	0x3db3582b	0.08757051
96	0x3c8c4647	0.017123355
97	0x3b149470	0.0022671483
98	0xbd9b3ada	-0.075795844
99	0xbe527b03	-0.20554738
100	0xbb686332	-0.0035459516
101	0xbdff29c0	-0.12459135
102	0xbd234e20	-0.039869428
103	0x3e2635ef	0.16231512
104	0xbdc20c63	-0.09475019
105	0xbe22cb29	-0.15897812
106	0xbbacbb91	-0.005271383
107	0xbdc28bf2	-0.09499349
108	0x3d818556	0.0632426
109	0x3dfa0195	0.12207333
110	0xba0f2e04	-0.0005461874
111	0x3e0ee8ce	0.13955995
112	0xbe02d7bb	-0.12777607
113	0xbcdfa4d2	-0.027300272
114	0xbc18d70d	-0.009328616
115	0xbe03f0a1	-0.12884761
116	0x3dc4352d	0.09580455
117	0xbd8282f3	-0.06372633
118	0x3d301929	0.042992745
119	0x3d93350f	0.071878545
120	0xbe132987	-0.1437131
121	0x3d57b9d9	0.052667473
122	0x3d445cf4	0.04794021
123	0xbc1d1861	-0.009588332
124	0xbe0c1106	-0.13678369
125	0xbc67f79f	-0.014158159
126	0xbd03e108	-0.03219703
127	0x3ddcc597	0.10779875
128	0x3d85cc0a	0.06533058
129	0x3d173e22	0.03692449
130	0xbc0237a5	-0.007947837
131	0xbd03c635	-0.032171447
132	0xbc843fa8	-0.016143635
133	0xbe02be5b	-0.12767927
134	0xbd7691a4	-0.060197487
135	0x3d087b46	0.033320688
136	0x3c7bac4c	0.015360903
137	0x3e1bb899	0.15207137
138	0x3d0d6b75	0.034526307
139	0x3d6a4b76	0.05720087
140	0x3d9116c5	0.07084421
141	0xbbe6fbeb	-0.007049074
142	0x3d5da1ed	0.054109503
143	0x3e49b2ed	0.19697161
144	0xbcfb7c3f	-0.030698894
145	0x3c5342ae	0.012894316
146	0x3d39c031	0.045349304
147	0x3c412b4f	0.011790111
148	0x3c96f09e	0.018425282
149	0x3dc1e8a3	0.094682
150	0xbcf18cc5	-0.02948607
151	0x3dab2ace	0.08357774
152	0x3dddb28d	0.108250715
153	0xbe3549d5	-0.17703946
154	0x3d802ad5	0.062581696
155	0xbe11c4b3	-0.14235191
156	0x3d989f32	0.07452239
157	0x3d4aa5bb	0.04947446
158	0x3dc98e08	0.098415434
159	0x3c98ee52	0.018668327
160	0x3afc9fbf	0.0019273682
161	0xbb7dc822	-0.0038724025
162	0x3e2de646	0.16982374
163	0xbe3e550f	-0.18587135
164	0xbdaab35e	-0.08334993
165	0x3e188cf1	0.14897515
166	0xbcd13361	-0.025537195
167	0x3d9ac175	0.0755643
168	0xbd01ec84	-0.0317197
169	0x3c1a7b76	0.009428849
170	0xbd9e90af	-0.0774244
171	0xbb006184	-0.0019589374
172	0x3c86862c	0.0164214
173	0x3d8a6877	0.06758206
174	0xbd0cf99e	-0.03441774
175	0x3e4a2e80	0.19744301
176	0x3b96e804	0.004605295
177	0xbe1800c2	-0.14844039
178	0x3dcc8b40	0.09987497
179	0xbc4f86ee	-0.012666447
180	0x3e049cab	0.12950389
181	0x3e1326f6	0.14370331
182	0x3b06c87d	0.0020566278
183	0xbd9680e5	-0.073488034
184	0x3cc3bf68	0.02389498
185	0xbc4d3efb	-0.012527223
186	0x3bd6ffaf	0.0065612416
187	0xbe429bb1	-0.19004704
188	0x3a931f12	0.001122447
189	0x3dc19716	0.094526455
190	0x3df3f741	0.11912394
191	0x3c4f82dc	0.012665477
192	0xbdc6cb68	-0.097067654
193	0x3df2b685	0.11851219
194	0xbd9f0b38	-0.07765812
195	0xbcab8f15	-0.02094225
196	0x3e8971b6	0.26844567
197	0x3e37cd3a	0.17949381
198	0xbcaffb36	-0.021482091
199	0xbe107617	-0.14107548
200	0x3dfd450c	0.12366685
201	0x3d482477	0.0488629
202	0xbd7657b7	-0.060142245
203	0x3d963e33	0.07336082
204	0xbcaaa378	-0.020829901
205	0xbb815afa	-0.003947613
206	0xbd1af0af	-0.03782719
207	0xbd812670	-0.063061595
208	0xbcad45ac	-0.021151386
209	0x3ca31091	0.01990536
210	0xbd13d22d	-0.03608911
211	0x3e058896	0.13040385
212	0xbb23e344	-0.0025007287
213	0xbc997407	-0.018732084
214	0x3d0b519e	0.034013383
215	0xbc955a02	-0.018231396
216	0xbd238991	-0.039926115
217	0x3cc8e1e5	0.024521777
218	0xbd60a34c	-0.054843232
219	0x3d11d5e0	0.035604358
220	0x3b6b978e	0.0035948488
221	0xbd2a8e79	-0.04163978
222	0xbd8c35e0	-0.06846213
223	0x3d98a975	0.07454196
224	0x3d9af058	0.07565373
225	0x3d249a95	0.040186483
226	0xbda26214	-0.07928863
227	0xbd3f1dad	-0.04665916
228	0x3d0b736d	0.034045625
229	0xbd3752bf	-0.044756647
230	0x3d4d402d	0.05011003
231	0x3d40f3d3	0.04710753
232	0x3d089196	0.033341967
233	0x3d32acce	0.04362183
234	0x3e0a9a79	0.13535489
235	0x3d5ba31e	0.053622358
236	0x3d8648ec	0.065568775
237	0x3cdfbf80	0.027312994
238	0x3bda74e5	0.006666767
239	0xbca0d291	-0.019631656
240	0x3d49950e	0.049214415
241	0x3d3631e3	0.04448117
242	0xbcd0e857	-0.025501413
243	0xbd907a85	-0.07054619
244	0xbdf80967	-0.12111168
245	0x3de71262	0.11282803
246	0xbd04a8f7	-0.0323877
247	0x3cd27687	0.025691284
248	0xbcf793b9	-0.030221807
249	0xbc753c5a	-0.014968002
250	0x3d7ceff8	0.06175229
251	0x3cbb100a	0.022834796
252	0xbd408ebb	-0.04701112
253	0xbd801dcc	-0.06255683
254	0x3d8778e2	0.066148534
255	0xbc473065	-0.012157534

model_list.2.bias f4 [12]
0	0x3b38a4b4	0.0028174343
1	0xbd9dfcc6	-0.07714228
2	0xbcaa1912	-0.020763908
3	0xbd907c01	-0.07054902
4	0xbbf7aaf2	-0.00755822
5	0x3dcc6b84	0.099814445
6	0xbd358669	-0.044317637
7	0x3d509790	0.05092579
8	0x3d334c1f	0.043773767
9	0x3ca1824c	0.01971545
10	0x3d94505b	0.07241889
11	0x3d8e12a7	0.069371514
